archive/pymc_to_hssm/mathpsych_workshop_2025_data/race_3_no_bias_lan.onnx (onnx, 126627 bytes, 9 tensors)

layers.0.weight f4 [100, 8]
0	0x3d4353c7	0.04768732
1	0x3e495ee6	0.19665107
2	0x3e3649f8	0.17801654
3	0xbf1f4ab7	-0.6222338
4	0xbf8946ca	-1.0724728
5	0xbe93facd	-0.28902283
6	0x3e94a0d6	0.29028958
7	0xba532fdf	-0.00080561446
8	0x3e2d9e7c	0.16954988
9	0x3e7ddbf8	0.24790943
10	0x3e907a25	0.2821819
11	0x3d08a6c0	0.03336215
12	0xbd08f7f5	-0.033439595
13	0xbd103262	-0.0352043
14	0x3d0fc417	0.035099115
15	0xbe3e1450	-0.18562436
16	0x3a9d677f	0.0012008994
17	0x39b68a3a	0.00034816732
18	0x3ac5b51a	0.001508388
19	0x39473cc8	0.00019000762
20	0xbaaca8f9	-0.0013172916
21	0x3b2d84ea	0.0026476928
22	0x396362d3	0.00021685222
23	0x3b10fa76	0.0022121943
24	0xbc70e0a0	-0.014701992
25	0xbdba6d21	-0.09102846
26	0xbd576c81	-0.05259371
27	0x3dbf6cc4	0.09346917
28	0xbd1ea7d0	-0.038734257
29	0x3e86c749	0.26323918
30	0xbe830db6	-0.25596398
31	0x3d6ad866	0.05733528
32	0x3d24192e	0.040063076
33	0x3c9f0d92	0.01941565
34	0x3c02ed0f	0.0079910895
35	0x3bf93266	0.007604885
36	0x3d550f09	0.05201629
37	0x3cc43947	0.023953093
38	0xbceb5ecc	-0.028731726
39	0x3cae4452	0.021272812
40	0xbebd0fcf	-0.36926123
41	0xbe0800d6	-0.13281569
42	0x3d53abad	0.051677395
43	0x3e49953d	0.19685836
44	0x3e68c06d	0.22729655
45	0x3cf8d705	0.030375967
46	0xbcf6507b	-0.030067673
47	0x3e39a039	0.18127526
48	0x3e267f51	0.16259505
49	0x3e284212	0.16431454
50	0x3e8356be	0.25652117
51	0xbe3be23a	-0.18348017
52	0x3f27b3b2	0.6550857
53	0xbc986156	-0.0186011
54	0x3cae11b5	0.021248678
55	0x3dacae0b	0.084316336
56	0xbd0bfe14	-0.034177855
57	0x3d82b00c	0.063812345
58	0x3b9f01f1	0.0048525264
59	0xbcddc27c	-0.027070276
60	0x3e1cfc37	0.15330587
61	0xbc404fff	-0.011737823
62	0x3c27a760	0.010232776
63	0xbdc2d883	-0.095139526
64	0xbb3157bf	-0.0027060357
65	0xbbd31688	-0.006441895
66	0xbc7ab881	-0.015302778
67	0xbce7340d	-0.028223062
68	0x3ce3231b	0.0277267
69	0xbb7f7329	-0.0038978553
70	0xbb22b1bf	-0.0024825183
71	0x3c8504d1	0.016237648
72	0x3d9b6b9c	0.07588884
73	0x3c217f5f	0.009857028
74	0xbe768267	-0.24073182
75	0xbe537829	-0.20651306
76	0xbe355978	-0.17709911
77	0xbeedef64	-0.46471703
78	0x3eeca5ad	0.4622015
79	0x3dcd2455	0.100166954
80	0x3cdbc6a3	0.026828116
81	0x3d1ac706	0.03778746
82	0xbbe9b68f	-0.0071323584
83	0x3d26aa5c	0.04068981
84	0xbe187c4b	-0.14891164
85	0x3eaddfc2	0.33959776
86	0xbead601c	-0.33862388
87	0x3cd36487	0.025804771
88	0xb86136f0	-5.3695345e-05
89	0x3a510e77	0.0007974873
90	0x3b7c2524	0.0038474286
91	0x3bbc72a7	0.0057509723
92	0xbbbc5b4a	-0.005748187
93	0xbc74628f	-0.014916076
94	0xb9d4bc6c	-0.00040576176
95	0x3bef1890	0.0072966293
96	0xbf10fea0	-0.56638527
97	0x3ed8a56e	0.42313713
98	0x3e9a1edb	0.30101666
99	0xbe4cd0f8	-0.2000159
100	0x3e92fcb9	0.28708437
101	0xbba3184d	-0.004977262
102	0x3b9ecaef	0.004845969
103	0xbd14e191	-0.03634793
104	0x3dd709c4	0.104999095
105	0xbd63e2c1	-0.05563617
106	0x3e589ad3	0.21152811
107	0xbd10d871	-0.035362665
108	0xbf169c2a	-0.5883204
109	0x3b924c9d	0.0044646994
110	0xbba7c555	-0.0051199594
111	0xbe9e3531	-0.30899957
112	0x3ee0ac65	0.43881527
113	0x3e6d4ca2	0.23173764
114	0xbe8c6cd1	-0.2742677
115	0x3f02fe9e	0.51169765
116	0x3e80d894	0.25165236
117	0xbd4304ce	-0.047612004
118	0x3d3a7d09	0.0455294
119	0x3cea9612	0.028636012
120	0xbe24885d	-0.16067643
121	0xbdd14e4c	-0.10220012
122	0x3e347899	0.1762413
123	0xbe0f89f3	-0.14017467
124	0x3e7a8e67	0.24468385
125	0xbf28aaf2	-0.6588584
126	0x3f296402	0.66168225
127	0x3e845604	0.25846875
128	0x3e8e2565	0.27762905
129	0x3e57da49	0.21079363
130	0xbf34f47b	-0.7068555
131	0x3e83a4b5	0.257116
132	0x3ee1cce8	0.44101644
133	0x3caf72e1	0.021417083
134	0xbcae15cd	-0.02125063
135	0x3dc0e620	0.09418893
136	0xbdae56d9	-0.085126586
137	0xbbbb4734	-0.005715275
138	0x3e2689b9	0.16263475
139	0x3d7a493d	0.061105
140	0xbe306ca2	-0.1722894
141	0xbf2aa202	-0.66653454
142	0x3f2c7ed1	0.67381006
143	0xbe662b0e	-0.22477362
144	0xbe2663e5	-0.16249044
145	0xbd816a8f	-0.063191526
146	0x3e4346f6	0.19070038
147	0x3e368c52	0.17826965
148	0xbe40a0db	-0.18811361
149	0x3f17e015	0.593263
150	0xbf1712b8	-0.5901294
151	0xbe389e91	-0.18029238
152	0x3e2310b3	0.15924339
153	0x3e1bb654	0.15206271
154	0xbed0792f	-0.40717456
155	0x3d97e0e6	0.07415943
156	0xbf55b68a	-0.8348166
157	0xbcf80e46	-0.030280244
158	0x3cfcf438	0.030878171
159	0x3dd9d123	0.10635593
160	0xbafa358d	-0.0019089446
161	0x3aba15ee	0.0014197209
162	0x3b947a8f	0.0045312117
163	0xb8bd0bb3	-9.0144014e-05
164	0x3b904276	0.004402454
165	0xbc3ba6f5	-0.01145338
166	0x39343cf0	0.00017188839
167	0x3b30b392	0.00269625
168	0xbca477c9	-0.02007665
169	0xbe744111	-0.23852946
170	0xbe80b38e	-0.2513699
171	0xbe25d810	-0.16195703
172	0x3eb6066e	0.3555178
173	0x3b6c098d	0.0036016435
174	0xbbbe5016	-0.005807887
175	0x3c8b2bfc	0.016988747
176	0x3d508b09	0.050913844
177	0x3d6347af	0.055488285
178	0xbcace41d	-0.021104867
179	0x3cd51400	0.026010513
180	0x3cc53a7c	0.02407574
181	0x3bdcc588	0.0067374147
182	0xbada75cc	-0.0016667186
183	0x3c32b718	0.010907911
184	0x3e1a36af	0.15059923
185	0xbe2d1ae4	-0.16904789
186	0xbd30f932	-0.0432064
187	0x3e383e75	0.17992575
188	0x3f0910a7	0.53541034
189	0x3da8a159	0.082338996
190	0xbda44559	-0.080210395
191	0xbe71b455	-0.23603947
192	0xbe369784	-0.17831236
193	0x3e2a48a5	0.16629274
194	0xbd54f6c8	-0.05199316
195	0x3e6d3930	0.23166347
196	0x3f04605b	0.51709527
197	0x3b82c09c	0.003990246
198	0xbb19b24f	-0.0023452227
199	0xbd9ffb49	-0.07811601
200	0xbddabb3f	-0.106802456
201	0xbd5f88f1	-0.054573957
202	0x3d22a44c	0.039707467
203	0xbda59864	-0.08085707
204	0xbf34ec21	-0.70672804
205	0x3e1a7888	0.15085042
206	0xbe19a6aa	-0.15004984
207	0x3db7c9ac	0.08974013
208	0xbd6a5ccf	-0.057217415
209	0xbde6c1ac	-0.11267409
210	0x3e038f11	0.12847544
211	0xbd5e97a5	-0.05434384
212	0x3f24ef92	0.64428055
213	0xbf76babd	-0.9637869
214	0x3f772373	0.96538466
215	0xbc922dac	-0.017844044
216	0xbdf64244	-0.12024358
217	0xbe07baba	-0.13254824
218	0x3e800924	0.25006974
219	0xbd94e7d5	-0.07270781
220	0xbee1eb6f	-0.44124934
221	0x3f00cfa4	0.50316834
222	0xbf00a576	-0.50252473
223	0x3e8a56fa	0.27019483
224	0xbd0063c8	-0.03134516
225	0x3d04618c	0.03231959
226	0xb7e1f729	-2.6937183e-05
227	0xbe16219f	-0.14661263
228	0xbeb2cb46	-0.3492071
229	0x3e5d9a86	0.21640977
230	0xbe66075c	-0.22463745
231	0xbd12b38b	-0.035815757
232	0x3ec157c6	0.37762278
233	0x3b724399	0.003696656
234	0xbeaa2b52	-0.33236176
235	0xbe2a4523	-0.16627936
236	0x3f0d866a	0.55283225
237	0x3d3b97f2	0.045799203
238	0xbd2b1e2c	-0.04177682
239	0xbdf10109	-0.117677756
240	0x3d584ee0	0.052809596
241	0xbe1735d4	-0.14766628
242	0x3cf9ac8a	0.03047778
243	0x3e819ee5	0.2531654
244	0xbf6fbb80	-0.9364548
245	0x3ed8085e	0.42193884
246	0xbed85a3c	-0.42256343
247	0xbe1765ca	-0.14784923
248	0x3d0fc43e	0.03509926
249	0x3cac9254	0.021065868
250	0x3b0b94ab	0.002129833
251	0xb977bd67	-0.00023626313
252	0x3d9be998	0.07612914
253	0x3c9eeb7c	0.019399397
254	0xbccf161f	-0.025279103
255	0x3c23aa9e	0.009989409

layers.0.bias f4 [100]
0	0xbe4af02f	-0.19818185
1	0xbf408cca	-0.7521483
2	0x3bc655d1	0.0060527106
3	0x3d87508a	0.066071585
4	0x3cd44353	0.025911009
5	0xbdac52e9	-0.08414251
6	0xbf11edf3	-0.57003707
7	0x3cec84c6	0.028871905
8	0x3daa0f0e	0.08303653
9	0xba90bdc2	-0.001104288
10	0xbd174168	-0.03692761
11	0x3b798b53	0.0038077428
12	0xbed3abad	-0.41341916
13	0x3f093d93	0.5360958
14	0xbeebe5cb	-0.46073756
15	0xbdcd321c	-0.10019323
16	0x3eae6647	0.34062406
17	0x3e0bec46	0.1366435
18	0xbdbc68b1	-0.09199656
19	0x3ee73ea5	0.4516498
20	0xb9faa79f	-0.00047808603
21	0x3f38a6e5	0.7212966
22	0xbe45dfb8	-0.19323623
23	0xbedf2fb4	-0.43591082
24	0xbf21a01c	-0.6313493
25	0x3f44a092	0.7680751
26	0xbea53c8c	-0.32272756
27	0x3e5ebfd3	0.21752863
28	0x3f010179	0.5039287
29	0xbd3b71f7	-0.045762982
30	0x3e92534f	0.28579184
31	0x3ce3fb61	0.027829828
32	0x3e981580	0.29703903
33	0xbf70358d	-0.9383171
34	0xbf0f0c8d	-0.55878526
35	0x3c13eb89	0.009028324
36	0x3da5bce1	0.080926664
37	0x3eb5282b	0.35382208
38	0xbf09c88c	-0.53821635
39	0xbf21662f	-0.63046545
40	0xbe6c44ba	-0.23073092
41	0x3d11b645	0.035574216
42	0xbf7cadd9	-0.9870277
43	0xbdd6f8c7	-0.10496669
44	0xbf063b3b	-0.5243413
45	0xbeb2ccaa	-0.3492177
46	0x3edbc76f	0.42925593
47	0xbc93efb2	-0.018058632
48	0x3f2dd6aa	0.67905676
49	0xbe045f8a	-0.1292707
50	0x3b411cc1	0.0029466602
51	0xbd9bb863	-0.07603528
52	0xbc2368f9	-0.009973758
53	0xbe831749	-0.25603703
54	0x3e9bef10	0.30455828
55	0x3fe14c15	1.7601343
56	0x3c11d1bd	0.008900103
57	0xbf2940ac	-0.66114306
58	0xbbdf5ff3	-0.006816858
59	0xbf76aef4	-0.9636071
60	0x3de54c54	0.11196199
61	0xbe426548	-0.18983948
62	0x3ee7c45a	0.45266992
63	0x3ea95dc3	0.33079347
64	0x3d97efd3	0.0741879
65	0x3f3b8d8c	0.7326286
66	0xbe86574b	-0.26238474
67	0x3cf3b9e9	0.029751735
68	0x3ecbb5a3	0.39787015
69	0xbb91c70c	-0.004448777
70	0xb990ca3c	-0.00027616497
71	0xbe72ad5b	-0.23698942
72	0xbf0bf397	-0.54668564
73	0x3e536277	0.2064303
74	0x3e895fba	0.26830846
75	0xbe843a3c	-0.2582568
76	0x3e6614c8	0.22468865
77	0x3f2a15fe	0.6643981
78	0xbe119ef6	-0.14220795
79	0xbc014db9	-0.007892066
80	0xbe48ce84	-0.1961003
81	0x3eabb9b9	0.33540133
82	0x3d01d694	0.03169878
83	0x3b80db80	0.0039324164
84	0x3ed5b705	0.41741195
85	0xbdf5e832	-0.12007178
86	0x3e8ac981	0.2710686
87	0xbdfbbee2	-0.122922674
88	0xbf1db116	-0.61598337
89	0xbe271161	-0.16315223
90	0x3dec0ab6	0.115254804
91	0xbd82c28c	-0.06384763
92	0x3b27c52d	0.0025599704
93	0xbd6f0ccf	-0.058361825
94	0xbe94db38	-0.290735
95	0x3ee69a4d	0.45039597
96	0xbb7bd733	-0.003842783
97	0xbcbefa26	-0.02331264
98	0xbec5c34a	-0.38625556
99	0xbdd23fb9	-0.102660604

layers.2.weight f4 [100, 100]
0	0x3e11efad	0.14251585
1	0xbe27ff98	-0.16406095
2	0x3cc4dabd	0.024030084
3	0x3d2e0af6	0.042490922
4	0x3ccd0cd3	0.02503053
5	0x3e81b9b8	0.25337005
6	0x3f9d3cb4	1.228415
7	0xbe0a07c5	-0.13479526
8	0xbe524c6a	-0.20536962
9	0xbef3401f	-0.47509858
10	0x3e939cb0	0.2883048
11	0xbd3a4bbc	-0.045482382
12	0xbe1e842a	-0.15480104
13	0x3f0d51f2	0.55203164
14	0xbd9be506	-0.07612042
15	0xbe5a6b1c	-0.21329921
16	0xbe147875	-0.14499076
17	0xbe0ca5ec	-0.13735169
18	0xbf0e2360	-0.5552273
19	0xbf0d76be	-0.5525931
20	0xbd311f97	-0.043243017
21	0xbdf67a09	-0.12034995
22	0xbf326c46	-0.6969646
23	0xbd3b9c66	-0.04580345
24	0xbf0a6926	-0.54066694
25	0x3ddeb968	0.10875207
26	0x3e3d6fdf	0.18499707
27	0xbe62f17b	-0.2216243
28	0xbd874500	-0.066049576
29	0xbe2768a4	-0.16348511
30	0xbf095f7f	-0.5366134
31	0x3c334439	0.0109415585
32	0x3e163f48	0.14672577
33	0xbc23a12f	-0.00998716
34	0x3e96e134	0.2946869
35	0xbaa4d274	-0.0012574927
36	0xbde1695f	-0.11006426
37	0x3da13532	0.07871474
38	0xbed144c3	-0.40872774
39	0xbf0687db	-0.5255105
40	0x3e05bc8c	0.13060206
41	0xbdcf31f6	-0.10116951
42	0x3f171b04	0.590256
43	0x3e8397cb	0.25701746
44	0xbf363ec1	-0.71189505
45	0x3e0eb36f	0.13935636
46	0xbde79be1	-0.113090284
47	0xbd19057e	-0.037358753
48	0x3e72fbc8	0.2372886
49	0x3d5550f2	0.05207915
50	0x3cea1bb0	0.028577656
51	0xbd08c5c0	-0.033391714
52	0xbcefc41f	-0.029268323
53	0xbe57e1bb	-0.21082203
54	0xbdb6bc9e	-0.089226946
55	0x3d77b046	0.06047084
56	0xbd0c50b0	-0.034256637
57	0xbe9540d5	-0.29151025
58	0xbd1d0cf0	-0.038342416
59	0xbe2763b8	-0.16346633
60	0x3e39154d	0.18074532
61	0x3d57b9dc	0.052667484
62	0x3d91c8a7	0.071183495
63	0xbda6d909	-0.08146865
64	0xbe00dbc0	-0.12583828
65	0x3f02a33a	0.51030314
66	0xbde722d2	-0.11285938
67	0xbc509101	-0.012729884
68	0x3d112775	0.03543802
69	0x3bc9e632	0.0061614746
70	0x3d9ac121	0.07556368
71	0x3f0e14d0	0.5550051
72	0x3e943b3b	0.2895144
73	0x3e4e84b7	0.20167814
74	0xbe06d955	-0.13168843
75	0x3d6333b3	0.055469226
76	0x3d8e3668	0.06943971
77	0x3efedc17	0.4977729
78	0x3eca439c	0.39504707
79	0x3cabe3a6	0.020982575
80	0x3d728aee	0.059214525
81	0x3db04715	0.08607308
82	0x3e04c812	0.12966946
83	0xbdccbc72	-0.099968806
84	0x3e02a0fb	0.12756722
85	0xbe5b8ffc	-0.21441644
86	0x3e74b38c	0.23896617
87	0x3cfa0336	0.03051911
88	0x3e26442f	0.16236947
89	0x3ead74c0	0.33878136
90	0x3e0a3224	0.1349569
91	0xbe430c76	-0.19047722
92	0x3ca55a1d	0.02018457
93	0x3e74e529	0.23915543
94	0xbe390d4f	-0.18071483
95	0xbdd60202	-0.10449602
96	0xbcf2e8c1	-0.029652001
97	0x3dcac3c1	0.09900618
98	0x3e2619be	0.16220757
99	0x3e582d0d	0.21110936
100	0xbd8f1227	-0.06985884
101	0x3e57a66f	0.21059583
102	0x3b7bf156	0.0038443408
103	0xbe55b5b6	-0.20870098
104	0x3c65b59b	0.014020349
105	0x3b577373	0.003287521
106	0x3e775717	0.24154316
107	0x3e2a320e	0.16620657
108	0xbdc401a2	-0.09570624
109	0x3d990b03	0.074728034
110	0xbe32c87d	-0.17459293
111	0x3cf5baa2	0.02999622
112	0xbd27963f	-0.04091477
113	0xbdad8e30	-0.08474386
114	0x3d81354d	0.063089944
115	0x3df4b64d	0.119488336
116	0x3d0ea690	0.034826815
117	0x3ec83d76	0.3910939
118	0x3d26fb16	0.040766798
119	0xbe306760	-0.17226934
120	0xbcd1f43d	-0.025629157
121	0x3e42c2eb	0.19019668
122	0xbe6e9100	-0.232975
123	0xbe8c6eb2	-0.27428204
124	0xbed0d105	-0.4078447
125	0x3db80054	0.089844376
126	0xbf8badad	-1.0912377
127	0x3ca6ebf5	0.020376185
128	0xbdf71ac3	-0.12065651
129	0xbe208908	-0.15677273
130	0x3f2ffb4b	0.6874282
131	0x3ccb4750	0.024814278
132	0xbce94dd1	-0.028479489
133	0xbd9fcfd5	-0.07803313
134	0xbe3ebc5d	-0.18626542
135	0xbdc43431	-0.09580267
136	0xbd5add8b	-0.053433936
137	0x3d9ea3ce	0.07746087
138	0xbe8b5941	-0.27216533
139	0x3cec7629	0.028864937
140	0x3c2d0d5b	0.010562266
141	0xbda8f3b4	-0.08249608
142	0xbe126854	-0.1429761
143	0x3dc4e5e1	0.096141584
144	0x3d6b1026	0.057388447
145	0xbed7160c	-0.42009008
146	0xbd3676dc	-0.044546947
147	0x3e36331a	0.17792931
148	0xbe3cdde0	-0.18444014
149	0x3d504545	0.05084731
150	0xbca776ad	-0.020442331
151	0xbe107434	-0.14106828
152	0x3de56535	0.11200944
153	0x3bc053d7	0.0058693695
154	0xbc85aea4	-0.016318627
155	0x3c6ab26f	0.014324768
156	0x3a36514e	0.00069548644
157	0x3d1bf2d8	0.03807339
158	0xbded5a72	-0.11589517
159	0xbc551778	-0.013006084
160	0x3da12b47	0.078695826
161	0x3e4f5a89	0.2024938
162	0xbe2fd5d5	-0.17171414
163	0xbeaf583a	-0.34247
164	0xbcfdebc3	-0.030996209
165	0x3dcbd36b	0.09952434
166	0x3e37debc	0.1795606
167	0xbd0a8dd7	-0.033826675
168	0xbd8f0aa8	-0.069844544
169	0x3cf39b14	0.029737033
170	0x3ce3645a	0.027757812
171	0xbd872e40	-0.06600618
172	0xbd9dee75	-0.07711498
173	0xbcb38071	-0.021911832
174	0x3e665e3b	0.22496884
175	0xbeea6ff2	-0.45788532
176	0xbbe0137c	-0.00683826
177	0xbe0141a0	-0.1262269
178	0xbf14820b	-0.5801093
179	0xbd82f4f6	-0.06394379
180	0xbe26644b	-0.16249196
181	0x3df0a12f	0.11749493
182	0xbf087181	-0.53298193
183	0x3e2591a7	0.16168843
184	0x3c2ebc8e	0.010665072
185	0xbd1d7f23	-0.038451325
186	0xbe70f83b	-0.23532192
187	0x3b94db2f	0.0045427303
188	0xbda97f25	-0.08276204
189	0x3eb530a4	0.35388672
190	0x3e5adfeb	0.2137448
191	0xbd51c343	-0.051211607
192	0x3c8442ed	0.016145194
193	0x3cb3b9f5	0.021939257
194	0x3d8e9011	0.06961072
195	0x3e903eb9	0.28172854
196	0xbdcc4c4a	-0.099754885
197	0xbf1847d3	-0.59484595
198	0x3e79965a	0.24373761
199	0x3de0bc16	0.109733745
200	0x3ebf328c	0.37343252
201	0xbd7b1287	-0.061296966
202	0x3b77fe7f	0.00378409
203	0xbd9e18cf	-0.077195756
204	0x3c7f2d02	0.015574696
205	0x3dbb037f	0.09131526
206	0x3e93e681	0.28886798
207	0x3d001d2a	0.031277813
208	0xbca0e1bd	-0.01963889
209	0x3d264f39	0.040602896
210	0x3d0edf72	0.034881063
211	0xbc84482d	-0.016147697
212	0x3d902132	0.070375815
213	0xbcebcd76	-0.028784495
214	0xbd827ada	-0.06371088
215	0x3e8dc249	0.2768729
216	0xbd8d56d1	-0.069013245
217	0x3bb49cdf	0.0055118646
218	0xbd58131f	-0.05275261
219	0xbe847bc8	-0.25875688
220	0xbc910d15	-0.017706433
221	0x3e02fb3b	0.1279115
222	0x3dab8173	0.083743
223	0x3b3a231a	0.002840227
224	0x3da6ad05	0.081384696
225	0xbdbad112	-0.09121908
226	0x3f8e2153	1.110392
227	0xbdf51305	-0.11966518
228	0x3d775199	0.060380552
229	0x3e6f19fe	0.23349759
230	0xbed34e16	-0.41270512
231	0x3c151ad6	0.0091006365
232	0xbe36c7d5	-0.17849667
233	0x3d71c13b	0.05902217
234	0x3b8780e3	0.0041352375
235	0x3b76681d	0.0037598677
236	0x3e0851c0	0.13312435
237	0xbdf29eb2	-0.11846675
238	0x3d98f5f3	0.07468786
239	0x3dafab95	0.085776486
240	0xbd7ab986	-0.061212085
241	0x3c194550	0.009354904
242	0x3e23906f	0.15973066
243	0xbe29a1c5	-0.16565616
244	0x3e0d506b	0.13800208
245	0x3d0c1677	0.03420111
246	0xbbd69cf6	-0.006549473
247	0xbb67829a	-0.0035325647
248	0x3ed47a17	0.41499397
249	0xbdd7347a	-0.10508056
250	0xbc3fc0ae	-0.011703653
251	0x3d7e005f	0.062012073
252	0x3c275492	0.010213034
253	0xbb427ebb	-0.0029677588
254	0xbe1d4e7a	-0.15361968
255	0xbe45b3e7	-0.19306909

layers.2.bias f4 [100]
0	0xbd8ef13d	-0.06979606
1	0x3dea88d7	0.114518814
2	0xbca17161	-0.019707384
3	0xbe207112	-0.15668133
4	0x3e0d5b6a	0.13804403
5	0x3e308daf	0.17241548
6	0xbd18595b	-0.03719459
7	0x3d86f3d9	0.06589479
8	0xbe9179a4	-0.28413117
9	0xbe218da5	-0.1577669
10	0x3e54279c	0.20718235
11	0x3de1dbae	0.11028229
12	0xbf162ff1	-0.586669
13	0x3e143f0d	0.14477177
14	0x3e6acf5e	0.22930667
15	0x3d83b5cd	0.0643116
16	0x3e7a17dc	0.24423164
17	0x3eb00e27	0.34385797
18	0xbc6e2763	-0.014535758
19	0x3ca8021f	0.020508824
20	0xbd827fcd	-0.06372032
21	0xbd924ee0	-0.071439505
22	0x3c10a79a	0.008829022
23	0x3dc8e082	0.098084465
24	0x3e0eb614	0.13936645
25	0x3d61dd2f	0.055142578
26	0xbe0637ad	-0.13107176
27	0xbed7a157	-0.4211528
28	0x3d6ef950	0.05834323
29	0xbb868339	-0.0041049984
30	0xbeeb9b0a	-0.46016723
31	0xbe171e87	-0.14757739
32	0x3ec76405	0.38943496
33	0x3e0906ed	0.13381548
34	0xbc04a517	-0.008096001
35	0xbe857a55	-0.26069894
36	0xbcd05fa1	-0.025436224
37	0xbe9a7081	-0.3016396
38	0xbec1996e	-0.3781237
39	0x3e343455	0.17598088
40	0x3e50c389	0.2038709
41	0xbca63942	-0.020290975
42	0xbf2a7540	-0.6658516
43	0xbf0dfaaf	-0.5546064
44	0x3f1396f3	0.57652205
45	0xbe3ab54a	-0.18233219
46	0xbdf425ab	-0.11921247
47	0x3e5f7d28	0.21825087
48	0xbd554d10	-0.052075446
49	0xbb71a0bb	-0.0036869484
50	0xbf1050af	-0.56373113
51	0x3d755470	0.05989498
52	0xbd4ed1f1	-0.050493184
53	0x3e7eb072	0.24871996
54	0x3e033606	0.12813577
55	0xbe31d611	-0.17366816
56	0xbd0f8766	-0.035041235
57	0x3db3156b	0.087443195
58	0xbe8ff590	-0.28117037
59	0x3ce77ab9	0.02825676
60	0xbda7ebea	-0.08199294
61	0x3dab1632	0.08353843
62	0x3c8b0a41	0.016972663
63	0xbe742802	-0.23843387
64	0x3ebfce73	0.37462196
65	0x3beaec0c	0.0071692523
66	0x3d6d657b	0.057958107
67	0xbe1f3c08	-0.15550244
68	0xbda4c378	-0.08045095
69	0x3e757190	0.23969102
70	0x3e425877	0.18979059
71	0xbead7cfb	-0.33884415
72	0xbea39ae6	-0.31954116
73	0xbdf6fcfe	-0.12059973
74	0x3c8e39fb	0.017361632
75	0xbc687e0e	-0.01419021
76	0xbd6e4d98	-0.058179468
77	0x3e513d32	0.204335
78	0x3e5bf15c	0.2147879
79	0xbe158e27	-0.14605008
80	0x3e872070	0.26391935
81	0xbe1eddc1	-0.1551428
82	0x3d5ebcc5	0.054379243
83	0xbb890479	-0.0041814414
84	0xbd5c5d34	-0.053799823
85	0x3e9a2b69	0.30111244
86	0xbec00b07	-0.37508413
87	0x3f0fbf7e	0.5615157
88	0x3e4918e6	0.19638404
89	0x3e1b7407	0.1518098
90	0xbcede3ad	-0.029039228
91	0x3e7999bf	0.24375056
92	0xbe1b0b9e	-0.1514115
93	0xbd5d2962	-0.053994544
94	0xbd5f4b5c	-0.054515228
95	0x3f4130c0	0.7546501
96	0xbd05ad4d	-0.032635976
97	0xbf6de757	-0.9293112
98	0xbe825ab3	-0.25459823
99	0x3cc2195a	0.02369373

layers.4.weight f4 [100, 100]
0	0x3e65c904	0.22439963
1	0xbd4edc49	-0.05050305
2	0xbf244c6f	-0.6417913
3	0xbd9f7d60	-0.07787585
4	0xbc837aa0	-0.016049683
5	0x3e0b25b1	0.13588597
6	0xbe0b96d1	-0.1363175
7	0xbd9829b4	-0.07429829
8	0xbe43bf8e	-0.19116041
9	0xbeb77f51	-0.35839322
10	0xbd485506	-0.04890921
11	0x3ef5dcaf	0.4801993
12	0xbe2550dc	-0.16144127
13	0x3e0c3445	0.13691814
14	0x3d0724e8	0.03299418
15	0x3d42953b	0.0475056
16	0x3e8127e1	0.25225738
17	0xbe05d2da	-0.13068715
18	0xbe7fee5e	-0.24993274
19	0x3e82ef12	0.2557302
20	0x3e1776f0	0.14791465
21	0x3c6fefb9	0.014644557
22	0xbe055e85	-0.13024338
23	0x3edc860f	0.4307103
24	0x3e8d0765	0.27544704
25	0xbda227dd	-0.079177596
26	0xbc3f6bb2	-0.011683391
27	0x3e4df67b	0.20113556
28	0xbe80c53c	-0.25150478
29	0x3e256c5f	0.16154622
30	0xbda9fc10	-0.0830003
31	0xbe0abf31	-0.13549496
32	0x3e193bd4	0.14964229
33	0xbdc709c5	-0.0971866
34	0xbd8232e8	-0.06357366
35	0xbe0c2900	-0.13687515
36	0x3de7ee06	0.11324696
37	0xbf39ca19	-0.72574
38	0xbdf772d4	-0.120824486
39	0x3e9a031f	0.30080506
40	0xbe594bbb	-0.21220295
41	0x3d86e272	0.0658616
42	0xbe51210e	-0.20422766
43	0x3da58a75	0.08083049
44	0xbe0a7c96	-0.13524088
45	0x3e0bc921	0.13650943
46	0x3df546a3	0.119763635
47	0x3dcfe089	0.101502486
48	0x3e1fc9bc	0.156043
49	0x3e8ebf02	0.27880102
50	0x3e4378ef	0.19089101
51	0xbdbba219	-0.09161777
52	0xbe0f67c1	-0.14004423
53	0x3ea38d77	0.31943867
54	0xbcae67c6	-0.021289717
55	0x3e7cfcd5	0.24705823
56	0xbe18db24	-0.14927346
57	0xbcd01d31	-0.025404545
58	0xbebf06d8	-0.3730991
59	0xbd04ec0a	-0.032451667
60	0x3deddf12	0.11614813
61	0x3e2bdd62	0.1678367
62	0xbdd4cb12	-0.10390295
63	0x3d36a483	0.044590484
64	0x3da98af7	0.082784586
65	0xbe1dde12	-0.15416744
66	0xbd88cf6e	-0.06680189
67	0x3d641a42	0.055689104
68	0xbe922e87	-0.28551123
69	0x3e3153c4	0.1731711
70	0x3e41ea90	0.18937135
71	0xbd521940	-0.05129361
72	0xbcd3ccd1	-0.0258545
73	0x3e5176fb	0.20455544
74	0x3dd8536a	0.10562785
75	0xbd3e8bda	-0.04652009
76	0xbd348d1b	-0.04407988
77	0xbbc30985	-0.0059520626
78	0xbb85a979	-0.0040790406
79	0x3c5849ba	0.0132011715
80	0xbe5dfd75	-0.21678717
81	0xbd96ceff	-0.073637
82	0xbe0d3246	-0.13788709
83	0x3cd70a7d	0.026250118
84	0x3e7d3df4	0.24730664
85	0x3d98b23b	0.0745587
86	0xbe6dbaf4	-0.23215848
87	0xbe2fd032	-0.17169264
88	0xbe1be289	-0.15223135
89	0x3ecc9452	0.3995691
90	0xbd955ab0	-0.07292688
91	0xbc4d4556	-0.012528738
92	0xbe9f1c22	-0.3107615
93	0xbb3aa4dd	-0.0028479614
94	0xbe6a4860	-0.22879171
95	0xbdfcd12d	-0.123445846
96	0x3d8804a6	0.066415116
97	0x3dc1945e	0.09452127
98	0x3dbbbe4c	0.091671556
99	0x3e8ff737	0.28118297
100	0xbea2652f	-0.31717822
101	0x3f13a46b	0.57672757
102	0xbdf45133	-0.1192955
103	0xbdd33661	-0.10313106
104	0xbcd9c12c	-0.02658137
105	0xbea38534	-0.31937563
106	0xbea5a366	-0.32351226
107	0x3d5e2d3c	0.054242358
108	0xbe3298e0	-0.1744113
109	0x3e070efb	0.13189308
110	0xbf39b256	-0.72537744
111	0x3e31473a	0.17312327
112	0x3f019be1	0.5062848
113	0xc019eae7	-2.4049623
114	0x3cd32dcc	0.025778674
115	0xbd0e1786	-0.034690402
116	0xbe251452	-0.16121033
117	0xbdf9f058	-0.12204045
118	0x3e454a3b	0.19266598
119	0x3e627b8c	0.22117442
120	0x3e909e5f	0.28245828
121	0x3d0ad2bf	0.03389239
122	0xc0b10515	-5.5318704
123	0x3ca2369d	0.019801432
124	0xbed7e3dd	-0.42166033
125	0xbfe4e269	-1.7881595
126	0xbe147832	-0.14498976
127	0x3e24c217	0.16089664
128	0xbeaf8c1a	-0.34286577
129	0x40be03a1	5.937943
130	0x3d13e299	0.036104772
131	0x3e8d092d	0.27546063
132	0x3f0a1966	0.53945005
133	0x3d0e793f	0.034783598
134	0xbea59a60	-0.3234434
135	0x3ed68a50	0.419024
136	0xbe667b6b	-0.22508018
137	0xbd326479	-0.04355285
138	0xbcba3773	-0.022731518
139	0x3effeead	0.49986783
140	0x3d3455ab	0.04402701
141	0x3fab5dba	1.3387978
142	0x3eef93c2	0.46792418
143	0x3f330c84	0.6994097
144	0xbd5f585b	-0.05452762
145	0x3ef2c239	0.47413805
146	0x3e89111c	0.26770866
147	0x3f90ca49	1.1311733
148	0x3e89752c	0.26847208
149	0xbe396274	-0.18103963
150	0x3eb3d5b3	0.35123977
151	0xc0a62120	-5.1915436
152	0x3c278c92	0.010226386
153	0xbc32bcbe	-0.010909257
154	0x3e089db7	0.13341413
155	0x3d87d5b0	0.066325545
156	0xbc40c175	-0.011764874
157	0xbe280233	-0.16407089
158	0x40e44806	7.133792
159	0x3ea11729	0.31462982
160	0x3e5e8751	0.21731307
161	0x3e15b969	0.1462151
162	0x3eac0e1c	0.33604515
163	0x3f9b41d2	1.2129462
164	0xbd4ef068	-0.050522238
165	0x3e8985ae	0.26859802
166	0x3e03d339	0.12873544
167	0xbfde50bd	-1.7368389
168	0x3d818aaa	0.06325276
169	0xbec53b14	-0.38521636
170	0x3b4e60e1	0.003149085
171	0x3e2133a1	0.15742351
172	0x3e1ab14e	0.15106699
173	0xbf2121fb	-0.62942475
174	0x3d57c02b	0.0526735
175	0x3efa3f1e	0.4887628
176	0xbd131b20	-0.03591454
177	0xbe31d8ea	-0.17367902
178	0xbd359486	-0.044331096
179	0xbad9c41e	-0.0016614234
180	0xbc732460	-0.014840215
181	0xbeb11215	-0.34584108
182	0xbf063fd5	-0.5244115
183	0x3e8c90a0	0.2745409
184	0xbfcff332	-1.6246092
185	0xbea70dca	-0.32627708
186	0x3e66a4f4	0.22523862
187	0xbe7b9f40	-0.24572468
188	0xbed5477c	-0.416561
189	0xbf9ce41a	-1.2257111
190	0x3e83edcb	0.2576736
191	0xbdd5b773	-0.10435381
192	0xbe12a3ab	-0.14320247
193	0xbde8d082	-0.11367895
194	0x3f8ab282	1.0835726
195	0xbe916a23	-0.28401288
196	0xbedbcec8	-0.429312
197	0x3e185189	0.14874853
198	0xbe174fa5	-0.14776476
199	0x3d369434	0.04457493
200	0xbde95b20	-0.11394334
201	0xbe8ceb46	-0.2752325
202	0x3e72228a	0.23645988
203	0x3d6b1774	0.057395414
204	0xbc87ade8	-0.016562417
205	0xbe7114ec	-0.23543137
206	0xbd529590	-0.051412165
207	0x3cc07f03	0.023498064
208	0x3f4548ae	0.77064025
209	0xbe50f953	-0.2040761
210	0xbd97f0f3	-0.07419004
211	0xbd292ee2	-0.041304477
212	0xbe70cfc1	-0.23516752
213	0x3ea02038	0.3127458
214	0xbe38e908	-0.18057644
215	0xbd8fa4c9	-0.07013852
216	0xbea12556	-0.31473798
217	0xbe40c39a	-0.18824616
218	0xbe472f2d	-0.1945159
219	0x3f227c4d	0.6347092
220	0xbc502aee	-0.012705548
221	0x3d8fb7a7	0.07017451
222	0x3de3649e	0.111031756
223	0xbcc8d8fe	-0.024517532
224	0xbdb64637	-0.08900111
225	0x3c38b964	0.011274669
226	0x3ee8debe	0.4548244
227	0x3ea5aa46	0.3235647
228	0x3e00aa11	0.12564875
229	0xbe01de51	-0.12682463
230	0x3e764157	0.24048363
231	0xbd5342d0	-0.05157739
232	0xbdda032a	-0.10645135
233	0x3e46d011	0.19415309
234	0xbce02aa9	-0.027364092
235	0x3ea39660	0.31950665
236	0x3cedfec6	0.02905215
237	0x3e8111f3	0.25209007
238	0x3ec8bab4	0.39204943
239	0xbcfc13f3	-0.030771231
240	0xbca6de37	-0.020369632
241	0x3e7af4f3	0.24507503
242	0x3e2b22a3	0.16712432
243	0xbd94ffb1	-0.07275332
244	0xbec2fbee	-0.38082832
245	0x3dab19c0	0.08354521
246	0x3ec1b8d6	0.3783633
247	0xbcbad1ea	-0.022805173
248	0x3e1a8f43	0.15093713
249	0x3e85448d	0.26028863
250	0xbe0f24c3	-0.13978867
251	0x3dbfdf51	0.09368766
252	0xbe9f43e5	-0.31106487
253	0x3dd2e96b	0.10298427
254	0xbe1980b4	-0.14990503
255	0xbe1428ce	-0.14468691

layers.4.bias f4 [100]
0	0xbe3aeeb8	-0.18255126
1	0xbe819bd4	-0.253142
2	0xbe729b26	-0.23691997
3	0x3e781fbe	0.24230859
4	0xbed58dc6	-0.41709727
5	0x3d618eea	0.055067934
6	0x3e1fd3b6	0.15608105
7	0x3e3850bf	0.17999552
8	0xbec33328	-0.38124967
9	0x3c2deff5	0.010616292
10	0xbec046ab	-0.37553915
11	0x3f03e816	0.5152601
12	0xbd803a18	-0.062610805
13	0x3e99c11e	0.3003015
14	0xbecf1213	-0.40443477
15	0x3e102fc1	0.14080717
16	0xbddba682	-0.10725118
17	0x3e27b69e	0.16378257
18	0x3edefb55	0.43551126
19	0xbec03088	-0.37537026
20	0xbed4c614	-0.41557372
21	0xbdb67197	-0.08908384
22	0xbd9cb94f	-0.07652532
23	0x3d734b74	0.05939813
24	0x3e9a15d7	0.30094787
25	0xbe73ca24	-0.2380758
26	0xbe7a7af1	-0.24460961
27	0x3e770319	0.24122275
28	0xbe960bec	-0.2930597
29	0xbe54a7af	-0.20767091
30	0xbdb38657	-0.08765858
31	0x3e7d5eb7	0.24743162
32	0x3c4bd465	0.0124407755
33	0x3d65dc5f	0.056118365
34	0x3da9265c	0.082592696
35	0xbe52f5f9	-0.20601644
36	0xbe9e5add	-0.30928698
37	0x3f344053	0.7041065
38	0x3d63c0ac	0.055603668
39	0xbf36a7e4	-0.7134993
40	0x3c977aef	0.018491236
41	0x3f0bcaf4	0.54606557
42	0xbe75da5e	-0.24009082
43	0xba573460	-0.00082094036
44	0x3ea2efec	0.3182367
45	0xbe436cac	-0.19084424
46	0xbd0aabe3	-0.03385533
47	0xbc35e59c	-0.011102106
48	0x3f21b84e	0.6317185
49	0x3e4bfe51	0.19921233
50	0xbf0580f6	-0.52149904
51	0x3d00408a	0.03131155
52	0x3e9921b8	0.29908538
53	0x3ea26412	0.31716973
54	0xbd78d92d	-0.06075399
55	0x3edafd52	0.42771393
56	0xbe434189	-0.19067968
57	0x3e888c6a	0.26669627
58	0xbed36fde	-0.41296285
59	0xbe856532	-0.26053768
60	0x3f3270f8	0.69703627
61	0xbe222690	-0.15835023
62	0x3e2abff4	0.16674787
63	0x3d63e724	0.055640355
64	0x3f02e307	0.51127666
65	0x3e62004b	0.22070424
66	0xbda696cf	-0.08134233
67	0xbbfc5804	-0.007700922
68	0xbcae0e15	-0.02124695
69	0x3ecec76e	0.40386528
70	0xbe871d5a	-0.2638958
71	0x3edea8c1	0.43488124
72	0xbe3ef2bf	-0.18647288
73	0x3e9a7f4b	0.30175242
74	0x3e2c4ca0	0.16826105
75	0x3e51f290	0.20502687
76	0xbddd40ad	-0.108033516
77	0xbef75e94	-0.48314345
78	0xbf49ebe6	-0.7887558
79	0x3ede1f8b	0.4338344
80	0x3b1bef40	0.0023793727
81	0xbe144220	-0.1447835
82	0x3c793187	0.015209562
83	0x3d82168d	0.063519575
84	0xbe89fdb0	-0.2695136
85	0x3e9a124d	0.30092087
86	0xbec073ee	-0.37588447
87	0x3c079e85	0.00827754
88	0xbe81bc3a	-0.25338918
89	0x3f062ba0	0.52410316
90	0x3ed3f390	0.4139676
91	0xbed218cd	-0.41034546
92	0x3d7c1471	0.061542932
93	0x3e28a5c1	0.1646948
94	0x3e1ae389	0.1512586
95	0xbe3d5a84	-0.1849156
96	0xbda570a1	-0.08078123
97	0x3afcbf5d	0.0019283105
98	0x3d7351a9	0.05940405
99	0x3eb0011c	0.34375846

layers.6.weight f4 [100, 100]
0	0xbd9f76b6	-0.07786314
1	0x3f9f92bd	1.2466656
2	0xbe3bea7a	-0.18351164
3	0xbdd77d52	-0.1052195
4	0xbe8ebd8d	-0.2787899
5	0xbe35973d	-0.17733474
6	0xbe2356b1	-0.15951039
7	0xbe599db8	-0.21251571
8	0xbe87f67a	-0.26555234
9	0x3fc1169f	1.5085028
10	0x3ec58413	0.38577327
11	0x3eaaf723	0.33391675
12	0xbf598883	-0.84973925
13	0xbea0141f	-0.3126535
14	0xbe16e593	-0.14736013
15	0x3df87df3	0.12133398
16	0xbf10ce21	-0.5656453
17	0xbe062e2a	-0.13103548
18	0x3ea68975	0.32526746
19	0x3e87add9	0.26499823
20	0xbe3371ee	-0.1752393
21	0xbf0396ee	-0.51402175
22	0x3e819ea5	0.2531635
23	0x3e0bc3c7	0.13648902
24	0xbf84d770	-1.0378246
25	0xbdb179ed	-0.086658336
26	0x3d2785c4	0.040899053
27	0xbe28c174	-0.16480047
28	0x3e411561	0.18855812
29	0xbc8214d7	-0.015879078
30	0x3dc719ca	0.09721716
31	0xbb18c5d1	-0.0023311267
32	0xbe631f15	-0.22179826
33	0x3e9d2877	0.30694935
34	0xbe9119b0	-0.2833991
35	0xbdf895e3	-0.121379636
36	0x3dd0009f	0.101563685
37	0x3ed7ae47	0.4212515
38	0xbe3d8d99	-0.18511046
39	0xbebe5d1d	-0.37180415
40	0x3ee7403c	0.45166194
41	0x3c9251b1	0.01786122
42	0x3efdcc89	0.4957011
43	0xbe89e724	-0.2693416
44	0x3f10b832	0.5653106
45	0xbec99c95	-0.39377275
46	0x3d1c9602	0.038228996
47	0x3e07c86b	0.13260047
48	0x3e65a1c6	0.22424993
49	0x3f16793c	0.5877874
50	0xbe8c80e8	-0.27442098
51	0xbd29a371	-0.041415635
52	0xbe5d3656	-0.21602759
53	0xbdb76d1b	-0.08956357
54	0x3d8db5b7	0.06919425
55	0xbd47b5a3	-0.048757207
56	0xbd4dd1e1	-0.050248984
57	0xbd92b008	-0.071624815
58	0xbe3b6bcc	-0.1830284
59	0x3e176acf	0.14786838
60	0x3eb4fb7e	0.35348123
61	0xbe85062d	-0.25981274
62	0xbf4901be	-0.78518283
63	0x3e4eb243	0.20185189
64	0x3edc6f34	0.4305359
65	0x3eadfeeb	0.3398355
66	0x3d8a7d5a	0.0676219
67	0xbebd383a	-0.3695696
68	0xbd898c78	-0.067162454
69	0xbe9b0025	-0.30273548
70	0xbdfd9d27	-0.1238349
71	0x3e5f6b90	0.21818376
72	0x3d64a8a6	0.0558249
73	0xbfb6223b	-1.4229196
74	0xbd465b83	-0.048427116
75	0xbe20970a	-0.15682617
76	0x3dfbd807	0.12297063
77	0xbe1245f2	-0.14284495
78	0xbf415354	-0.75517774
79	0xbefc5f1e	-0.4929132
80	0xbc6beb37	-0.014399341
81	0x3e648a81	0.2231846
82	0x3e01ca4b	0.12674825
83	0x3d88d0bf	0.0668044
84	0x3e6fc560	0.23415136
85	0x3eaacfdf	0.33361718
86	0xbe83704a	-0.25671607
87	0x3dfb9de9	0.12285978
88	0x3d412c14	0.047161177
89	0xbef314af	-0.47476718
90	0x3e12b810	0.14328027
91	0x3e8a9ff6	0.27075166
92	0xbd6cb632	-0.057790942
93	0x3c8e46e5	0.01736779
94	0x3e8befce	0.27331394
95	0xbe27c2db	-0.16382925
96	0xbe0ca2a2	-0.13733914
97	0x3d840992	0.06447138
98	0x3eba3cb4	0.36374438
99	0xbeb1984b	-0.34686503
100	0xbdcfa2e5	-0.101384915
101	0xbc6ba234	-0.014381934
102	0xbebd6839	-0.36993578
103	0xbe4a3e9f	-0.1975045
104	0xbd7b71e3	-0.061387908
105	0xbee45a89	-0.44600323
106	0xbe859bc3	-0.260954
107	0x3d81557f	0.06315135
108	0xbee6686b	-0.4500154
109	0xbdbdd3f7	-0.09268945
110	0xbe282391	-0.16419818
111	0xbe5df023	-0.21673636
112	0x3e02e430	0.12782359
113	0x3e3c5ec0	0.1839552
114	0xbd014a81	-0.031565193
115	0xbf0594a8	-0.52179956
116	0x3df1f86b	0.1181496
117	0x3f73869d	0.9512728
118	0x3ece38dc	0.40277755
119	0xbe131212	-0.14362362
120	0x3cf0166e	0.02930757
121	0xbe767ae7	-0.24070321
122	0xbd621d28	-0.055203587
123	0xbe74a3b1	-0.23890568
124	0xbd938e4f	-0.072048776
125	0xbea71193	-0.32630596
126	0x3e2ad314	0.16682082
127	0x3c50afa6	0.01273719
128	0x3ef342b0	0.47511816
129	0x3dd8707c	0.1056833
130	0xbe9d45ea	-0.30717403
131	0x3dce8360	0.100836515
132	0x3eda58c5	0.4264585
133	0xbe255aa8	-0.16147864
134	0x3f06d15b	0.526632
135	0xc0037e0a	-2.0545678
136	0xbe5ae03d	-0.21374603
137	0x3e245079	0.16046323
138	0xbe0f8ab9	-0.14017762
139	0xbec3f8fc	-0.38275898
140	0x3e082068	0.13293612
141	0x3e35f03c	0.17767423
142	0x3e7aec70	0.24504256
143	0xbe5e9a51	-0.21738555
144	0x3e140a76	0.14457116
145	0x3dfa5357	0.12222927
146	0x3d1a136b	0.037616175
147	0x3e8cb94e	0.27485126
148	0x3e7ba465	0.2457443
149	0x3dd7710d	0.105196096
150	0xbe49246d	-0.19642802
151	0xbdb9ef2c	-0.090788215
152	0x3ea00cab	0.31259665
153	0x3e353d53	0.17699175
154	0xbe3f938a	-0.18708625
155	0xbd8820cc	-0.066468805
156	0x3d83aa7c	0.06429002
157	0xbe51019d	-0.20410772
158	0x3eeda3f9	0.46414164
159	0x3ec808b2	0.39069134
160	0x3ea1007c	0.31445682
161	0xbcce35bd	-0.025172109
162	0x3cbbc252	0.022919808
163	0xbf1d31df	-0.6140422
164	0x3ea638f2	0.3246532
165	0x3e295601	0.16536714
166	0x3edbd958	0.42939258
167	0xbee275de	-0.4423055
168	0x3e44eedd	0.19231744
169	0xbe73fd89	-0.23827185
170	0xbefac210	-0.48976183
171	0x3e59f104	0.21283346
172	0x3dcde600	0.10053635
173	0xbe6d0595	-0.2314666
174	0xbc3ce411	-0.011528985
175	0x3c5b4881	0.0133839855
176	0x3dbf2b36	0.09334414
177	0xbe4682ed	-0.19385882
178	0xbf015280	-0.5051651
179	0x3e95ee2a	0.29283267
180	0xbbc1cc69	-0.00591426
181	0x3ec0192c	0.37519205
182	0x3e051da7	0.12999593
183	0xbd5272dd	-0.051379073
184	0xbe252c42	-0.16130164
185	0x3e86b981	0.26313403
186	0x3dc70e32	0.097195044
187	0x3d7a5bf6	0.061122857
188	0xbe6ec058	-0.23315561
189	0xbeae50c7	-0.34046003
190	0x3e536f4f	0.2064793
191	0xbe1ca3e8	-0.152969
192	0xbe0a8753	-0.13528185
193	0xbf314d71	-0.6925879
194	0x3f117e3f	0.5683326
195	0x3e2a40b8	0.1662625
196	0xbe18a8c5	-0.1490813
197	0x3ded4fe9	0.11587507
198	0xbe61a23b	-0.22034542
199	0x3d89bd3b	0.06725546
200	0xbe6aa902	-0.22916034
201	0x3db4564b	0.088055216
202	0x3da33018	0.079681575
203	0xbd88c0e7	-0.06677418
204	0x3eb0071c	0.34380424
205	0xbe4ddc42	-0.20103553
206	0x3e400188	0.18750584
207	0xbd22e2a4	-0.039766923
208	0x3eaaa497	0.33328697
209	0xbf66ea25	-0.90201026
210	0xbe56e1b0	-0.2098453
211	0xbe625ceb	-0.22105758
212	0xbfcbda0e	-1.592592
213	0xbdb6afea	-0.08920272
214	0x3d0e14be	0.03468775
215	0xbda7182b	-0.081589065
216	0xbc46ab71	-0.012125836
217	0xbe8dd2d8	-0.27699924
218	0xbf0631a7	-0.52419513
219	0x3be5e94d	0.007016337
220	0x3e8937f8	0.26800513
221	0x3e9ef71a	0.310479
222	0x3c1faad8	0.009745322
223	0x3e4b623f	0.19861697
224	0x3de6bd00	0.11266518
225	0x3e97f1f6	0.2967679
226	0x3db62e35	0.08895532
227	0xbc8ae215	-0.016953507
228	0x3e56c09e	0.20971915
229	0xbe5f740a	-0.21821609
230	0xbdb57ad0	-0.08861315
231	0xbd62bceb	-0.055355947
232	0xbe52975b	-0.2056555
233	0xbb91147e	-0.0044274917
234	0x3e4731a7	0.19452535
235	0x3e2193e6	0.15779075
236	0x3e8c63f7	0.27420017
237	0xbe836dd2	-0.25669724
238	0x3de06802	0.10957338
239	0x3e9c16ba	0.3048609
240	0x3de30d2b	0.11086496
241	0xbec7a7cb	-0.38995203
242	0x3ec905cf	0.39262244
243	0xbe831b2c	-0.25606668
244	0xbe5cf480	-0.21577644
245	0x3e8dcdf2	0.27696186
246	0x3cb78660	0.022402942
247	0x3eb5e16e	0.35523552
248	0xbeb6ac38	-0.35678267
249	0x3d9a02a8	0.07520038
250	0x3ea0427d	0.31300727
251	0x3f2bfa36	0.67178667
252	0xbe230a6e	-0.15921947
253	0x3d8fcf77	0.07021993
254	0x3de890ee	0.11355768
255	0xbe8ed019	-0.2789314

layers.6.bias f4 [100]
0	0x3e83d086	0.25745028
1	0x3e401d2c	0.18761128
2	0xbebfa112	-0.37427574
3	0x3e8be527	0.27323267
4	0xbedb523b	-0.42836174
5	0xbe297562	-0.16548684
6	0x3eaa349f	0.33243272
7	0xbf05107d	-0.51978284
8	0x3db6192d	0.08891521
9	0xbf010407	-0.5039677
10	0xbecbe7b4	-0.39825213
11	0xbdf3ac43	-0.11898091
12	0x3e73f05d	0.2382216
13	0x3eb4e672	0.35332066
14	0xbeec4483	-0.4614602
15	0xbea2dc88	-0.31808877
16	0xbf01e160	-0.5073452
17	0xbeb69d0c	-0.35666692
18	0x3edbafbc	0.42907512
19	0xbe54301e	-0.2072148
20	0x3ee763fa	0.45193464
21	0xbe4ae2e0	-0.19813108
22	0xbed7270b	-0.42021975
23	0x3e4a4f82	0.19756892
24	0xbe2adc1f	-0.16685532
25	0xbe87a347	-0.26491758
26	0x3e7b244c	0.24525565
27	0x3e962033	0.2932144
28	0x3e42bb4f	0.19016765
29	0x3d160982	0.03663016
30	0x3e82b775	0.25530592
31	0x3edd8d9c	0.43272102
32	0x3ecf7b09	0.40523556
33	0xbe4bbd70	-0.19896483
34	0xbe4f3e22	-0.20238546
35	0xbe951a0c	-0.29121435
36	0xbe762f1e	-0.24041411
37	0xbee9627e	-0.45582956
38	0x3eab4dae	0.33457702
39	0x3edd27f0	0.43194532
40	0xbe7c61ee	-0.24646732
41	0x3caafe29	0.020873146
42	0xbe47b685	-0.1950322
43	0x3e1e789a	0.15475693
44	0xbe990d17	-0.298928
45	0x3ea6f35f	0.32607552
46	0x3e6b9c9a	0.23008958
47	0xbe31e9cf	-0.17374347
48	0x3f06d7e1	0.52673155
49	0xbea51983	-0.32246026
50	0xbe824ee1	-0.25450805
51	0x3ed71291	0.42006353
52	0xbe533734	-0.20626527
53	0x3e8ef76d	0.27923146
54	0xbecb073a	-0.3965395
55	0x3c1f2211	0.009712712
56	0xbe8e578a	-0.27801162
57	0xbeef6289	-0.46754864
58	0x3e011a28	0.12607634
59	0x3e905ea3	0.28197202
60	0x3ecf8118	0.40528178
61	0x3e7e3217	0.24823795
62	0x3dd5c325	0.104376115
63	0x3ed1b470	0.40957975
64	0x3ef3963d	0.4757556
65	0xbe0fbd73	-0.14037113
66	0xbe075ac0	-0.13218212
67	0x3e1d400d	0.15356465
68	0x3e9cff95	0.30663744
69	0x3d4f3288	0.0505853
70	0x3efdc21c	0.49562156
71	0x3ebd0358	0.36916614
72	0x3ee637a5	0.44964328
73	0xbdc96527	-0.098337464
74	0xbece5ffe	-0.4030761
75	0x3d99f504	0.07517436
76	0xbe8d9fec	-0.27661073
77	0xbe9403c9	-0.28909138
78	0xbea52d9c	-0.3226136
79	0xbf015b08	-0.5052953
80	0x3e849307	0.25893423
81	0xbe198a02	-0.14994052
82	0xbebee589	-0.37284496
83	0xbe938912	-0.28815514
84	0x3e3013b7	0.1719502
85	0x3ea36676	0.3191411
86	0x3e5e508e	0.21710417
87	0xbcb5b9a1	-0.022183241
88	0x3eb7459c	0.35795295
89	0x3dffae6d	0.12484441
90	0xbd8ab088	-0.06771952
91	0xbec59d6a	-0.3859666
92	0xbe8277e3	-0.2548209
93	0xbef7888d	-0.48346367
94	0xbe9aef41	-0.3026066
95	0x3e91bee8	0.28465962
96	0x3e8c9598	0.2745788
97	0x3e500b49	0.20316805
98	0xbed183d8	-0.409209
99	0x3dba14dc	0.0908601

layers.8.weight f4 [1, 100]
0	0xbe4d1e62	-0.20031121
1	0xbda00f42	-0.0781541
2	0x3ddf7232	0.10910453
3	0xbe920233	-0.28517303
4	0x3e3f830c	0.18702334
5	0x3e80d0d1	0.25159314
6	0xbe69f36a	-0.22846761
7	0x3e1e4f4c	0.15459937
8	0x3e690e8e	0.22759458
9	0x3df522db	0.11969539
10	0x3eab0d8b	0.3340877
11	0x3e7683f5	0.24073775
12	0xbe6825d6	-0.22670683
13	0xbeee733b	-0.4657229
14	0x3db2286a	0.086991146
15	0x3e66fd2b	0.22557513
16	0x3daa017c	0.08301064
17	0x3e7082ff	0.23487471
18	0xbe931485	-0.28726593
19	0x3d5f5537	0.054524627
20	0xbdc4e009	-0.09613044
21	0x3e3c4335	0.18385012
22	0x3e1d2fc8	0.15350258
23	0xbe1af4fb	-0.15132515
24	0x3e1a13c5	0.15046604
25	0x3e3c2208	0.18372357
26	0xbe01de77	-0.1268252
27	0xbe9bcad6	-0.3042819
28	0xbeb80f9d	-0.35949412
29	0xbeef9d6a	-0.46799785
30	0xbdde0b7d	-0.10842035
31	0xbd851387	-0.06497865
32	0xbe7887d9	-0.24270572
33	0x3d38942a	0.045063175
34	0x3eb7b93f	0.3588352
35	0x3ea0393b	0.31293663
36	0x3e9ceaad	0.30647793
37	0x3df6f7b1	0.12058962
38	0xbe067132	-0.13129118
39	0xbe7e027f	-0.2480564
40	0x3d9b56e2	0.07584931
41	0x3e8a9a95	0.27071062
42	0x3df5220f	0.11969387
43	0xbe14caf1	-0.14530541
44	0x3ea32998	0.3186767
45	0xbe287b93	-0.1645339
46	0xbe29fc4d	-0.16600151
47	0x3d7e721d	0.062120546
48	0xbd910b22	-0.070822015
49	0x3db3b19c	0.08774111
50	0x3d7bf417	0.06151208
51	0xbe9f30d3	-0.31091937
52	0x3dfad3f4	0.12247458
53	0xbde7a3f1	-0.11310566
54	0x3e6e0f55	0.23248036
55	0x3d8a69ea	0.06758483
56	0x3ea83ffb	0.32861313
57	0x3e29ddf1	0.1658857
58	0xbead0397	-0.337918
59	0xbe3025bb	-0.17201893
60	0xbdf13f24	-0.11779621
61	0xbd04dc62	-0.032436736
62	0xbda27c91	-0.079339154
63	0xbe80647c	-0.25076663
64	0xbe43ae4c	-0.19109458
65	0x3d00e358	0.031466812
66	0x3e2f9c51	0.17149474
67	0xbe62301d	-0.22088666
68	0xbe45a047	-0.19299422
69	0xbe69d14b	-0.22833745
70	0xbe791947	-0.24326049
71	0xbdd2f2be	-0.10300206
72	0xbec0f572	-0.3768726
73	0x3e294f7d	0.16534229
74	0x3dd7085c	0.10499641
75	0xbeccfc9a	-0.4003647
76	0x3df3240f	0.11872112
77	0x3d8afc99	0.067864604
78	0x3e1423c5	0.1446677
79	0x3e3f9a7e	0.18711278
80	0xbeaf57d4	-0.34246695
81	0x3e540fd3	0.20709161
82	0x3e1cfcfa	0.15330878
83	0x3de55797	0.11198347
84	0xbd409a0d	-0.047021914
85	0xbdd040ad	-0.10168586
86	0xbd81353c	-0.06308982
87	0xbe5f7c31	-0.21824719
88	0xbe230ff1	-0.1592405
89	0xbe1da4bb	-0.15394871
90	0x3daadc2a	0.08342774
91	0x3db7e2d5	0.08978812
92	0x3eba9df5	0.36448637
93	0x3e19d922	0.15024236
94	0x3d35218d	0.04422145
95	0xbe8283f5	-0.254913
96	0xbeb47f62	-0.35253435
97	0xbdb31ac9	-0.08745343
98	0x3e50ee3c	0.20403379
99	0xbe9d2f2e	-0.30700058
